chapter03/app/model/model.pth (torch, 84919 bytes, 7 tensors)

0.weight f4 [100, 1]
0	0x3d1040ca	0.035218038
1	0x3f040ee1	0.51585203
2	0xbed5dba8	-0.41769147
3	0xbe0357f8	-0.12826526
4	0xbe8814b1	-0.26578286
5	0x3e4d359e	0.20039985
6	0xbd841fca	-0.06451376
7	0x3f3797a9	0.7171579
8	0xbd41509b	-0.047196012
9	0x3e525cf7	0.20543276
10	0xbe4ea496	-0.20179972
11	0xbda7a43b	-0.08185621
12	0xbed02587	-0.4065363
13	0xbec7d104	-0.39026654
14	0xbdcddbfa	-0.10051723
15	0x3d3d38a7	0.046196606
16	0x3e85e47e	0.26150888
17	0x3f0f43f1	0.55963045
18	0xbe8f73ad	-0.2801794
19	0xbe59c54f	-0.21266674
20	0x3ea244b9	0.31693056
21	0x3f5df353	0.8669941
22	0xbd954f13	-0.07290473
23	0x3f17f115	0.59352237
24	0xbdafda02	-0.085865036
25	0x3d818932	0.06324996
26	0x3f6c3b4c	0.9227798
27	0xbe98f671	-0.2987552
28	0xbcf8739d	-0.030328566
29	0xbdfd0944	-0.12355283
30	0xbcf19b49	-0.029492991
31	0x3f680053	0.90625495
32	0xbec0e03e	-0.37671083
33	0xbe181b6d	-0.14854212
34	0xbf09ee03	-0.538788
35	0xbedc3b25	-0.43013874
36	0xbe840b5e	-0.25789922
37	0x3f5084a4	0.81452394
38	0x3ec62cd2	0.3870607
39	0x3ee6b370	0.45058775
40	0x3d0e8dc6	0.034803174
41	0xbe48a48b	-0.19594018
42	0x3e151a83	0.14560895
43	0xbe98d0f4	-0.2984692
44	0xbf0e09de	-0.55483806
45	0xbdf94172	-0.12170686
46	0x3f1d8245	0.615269
47	0x3eea5c61	0.45773605
48	0xbe5448e3	-0.20730929
49	0xbd61b279	-0.055101845
50	0x3f169c38	0.5883212
51	0x3f6fe988	0.93715715
52	0x3e9c1def	0.30491588
53	0x3dcba08e	0.09942733
54	0x3f13b73c	0.5770147
55	0xbede509a	-0.4342087
56	0x3e153df5	0.14574416
57	0xbedfa0a0	-0.43677235
58	0xbeced1a9	-0.40394333
59	0xbe655e61	-0.22399284
60	0x3eb8ab93	0.360684
61	0x3ea572bf	0.32314107
62	0xbec2ed3f	-0.3807163
63	0x3e786a43	0.24259286
64	0x3efdb783	0.4955407
65	0xbd21e323	-0.039523255
66	0x3d2e7417	0.04259118
67	0x3e42c494	0.19020301
68	0x3f0a7965	0.54091483
69	0x3f73951f	0.95149416
70	0xbf0aa2ff	-0.5415496
71	0xbe642e28	-0.22283232
72	0x3e9d30a4	0.30701172
73	0x3f5b70fb	0.8571927
74	0x3f559a7b	0.83438843
75	0x3f5a2b45	0.85222274
76	0x3e0802b4	0.13282281
77	0xbead0086	-0.33789462
78	0x3dc8dfe1	0.098083265
79	0xbecfbb0d	-0.40572396
80	0xbf0f98d3	-0.56092566
81	0x3f63dcbf	0.89008707
82	0x3f36add0	0.71358967
83	0xbf22765d	-0.6346186
84	0x3e170043	0.14746194
85	0xbd5c0cd6	-0.05372318
86	0xbd717941	-0.058953527
87	0xbd0354bc	-0.03206323
88	0x3eb0293c	0.3440646
89	0xbe586973	-0.21133976
90	0x3ea1386f	0.31488368
91	0x3ec0427c	0.37550724
92	0x3f327c28	0.697207
93	0x3eaa17a2	0.33221155
94	0xbf1f3c54	-0.6220143
95	0xbec81f90	-0.3908658
96	0x3ed84fc1	0.42248347
97	0x3e0faf86	0.140318
98	0xbefcc5f9	-0.4936979
99	0xbe92290d	-0.28546944

0.bias f4 [100]
0	0x3fd70b69	1.6800357
1	0x3f5716fa	0.84019434
2	0xbefece61	-0.4976683
3	0xbd974762	-0.07386662
4	0xbfe3527d	-1.7759548
5	0x3d11ac76	0.035564862
6	0xbfb28023	-1.3945354
7	0xbf536257	-0.8257193
8	0xbf7870d1	-0.97047144
9	0x3ddc4f8a	0.10757358
10	0xbf3c2c24	-0.73504853
11	0x3f95bfbd	1.1699139
12	0xbf03277c	-0.51232123
13	0x3f905d36	1.1278446
14	0x3f2ba5c1	0.67049795
15	0xbf9e7214	-1.2378564
16	0xbe2c3c9a	-0.16819993
17	0x3ddc0d2b	0.10744699
18	0x3ec28570	0.3799243
19	0x3f1e659b	0.6187379
20	0x3ee68be8	0.45028615
21	0x3e305fef	0.17224096
22	0xbfbd45ef	-1.4786967
23	0x3ef06772	0.46953923
24	0xbfe80d1e	-1.8129003
25	0xbedb8905	-0.42877975
26	0xbe3a6005	-0.18200691
27	0xbd74991a	-0.05971632
28	0xbc14ecfe	-0.009089706
29	0xbfde4e18	-1.7367582
30	0x3c3661b8	0.011131696
31	0x3ef9b308	0.48769403
32	0xbf7c3c42	-0.98529446
33	0x3e824980	0.254467
34	0x3f99666d	1.1984383
35	0xbeedd7b5	-0.46453634
36	0x3e2923c6	0.16517553
37	0x3e1e646d	0.15467997
38	0x3e53f5c3	0.2069922
39	0x3f3b9d80	0.732872
40	0x3fd7d9d2	1.6863348
41	0x3f6ef0d8	0.9333625
42	0x3f6dc4c8	0.9287839
43	0xbe271e9a	-0.16320267
44	0xbfb9bbd9	-1.4510452
45	0xbcbac921	-0.022800984
46	0x3f29f81b	0.66394204
47	0x3dabb4b9	0.083840795
48	0xbf42e093	-0.76123923
49	0xbfbbee53	-1.4682106
50	0xbf8556e8	-1.0417147
51	0xbf2223ae	-0.6333569
52	0xbe30705d	-0.17230363
53	0x3f09f798	0.53893423
54	0x3f1f3a43	0.62198275
55	0xbfcaf7ac	-1.5856833
56	0x3f3b8188	0.73244524
57	0xbf93657e	-1.1515348
58	0xbf054abe	-0.5206717
59	0xbf4f77df	-0.81042284
60	0xbe1e1331	-0.15437008
61	0xbe124f84	-0.14288145
62	0xbfb163e7	-1.3858613
63	0xbf41c542	-0.75691617
64	0xbe3c80b5	-0.18408473
65	0x3f2ade57	0.66745514
66	0xbf0e2909	-0.55531365
67	0x3ed72d96	0.42026967
68	0xbf754125	-0.9580253
69	0x3e3db564	0.18526226
70	0x3f9aa5ed	1.2081887
71	0xbf4f340b	-0.80938786
72	0x3f4f96fa	0.81089747
73	0x3eec208d	0.46118584
74	0xbf621c60	-0.88324547
75	0x3f42f57c	0.7615583
76	0xbd994e4e	-0.074856386
77	0xbed0a872	-0.40753514
78	0x3fc4d978	1.5378866
79	0xbfbd3285	-1.4781042
80	0xbde81cfc	-0.11333653
81	0xbe8c67a6	-0.27422827
82	0x3f44fa07	0.7694401
83	0x3ecce4ad	0.40018216
84	0x3f003f29	0.50096375
85	0x3f52ea9e	0.8238925
86	0xbf990307	-1.1954049
87	0xbbb0f11b	-0.0053998358
88	0xbf432425	-0.7622703
89	0x3f4c60cf	0.7983522
90	0x3f322b55	0.6959737
91	0x3f2b23f5	0.6685174
92	0xbee61348	-0.44936585
93	0x3e3574d6	0.1772035
94	0xbf440beb	-0.76580685
95	0xbf834aaa	-1.0257161
96	0xbef1b2ce	-0.4720673
97	0x3eafe59c	0.34354866
98	0xbf93d357	-1.1548871
99	0x3e3cd8fe	0.18442151

3.weight f4 [100, 100]
0	0x3bf6ef7f	0.0075358744
1	0x3d6f236e	0.058383398
2	0xbdb6b26f	-0.08920752
3	0xbda87b80	-0.08226681
4	0xbd6dd6c7	-0.058066156
5	0x3d82ce20	0.063869715
6	0xbd133ca3	-0.0359465
7	0x3d9f5b42	0.07781078
8	0x3d141d4d	0.036160756
9	0x3bb533ee	0.005529872
10	0xbc6b3e48	-0.014358111
11	0xbd08bd4a	-0.033383645
12	0xba8c1e29	-0.0010690141
13	0xbd154cc5	-0.036450166
14	0xbc6a96f2	-0.014318215
15	0xba33041d	-0.0006828921
16	0xbda4ae2a	-0.08041032
17	0xbd6badff	-0.057538982
18	0x3d897d5f	0.06713366
19	0xbdc216df	-0.094770186
20	0xbc490668	-0.012269594
21	0x3dbdee72	0.092739955
22	0x3d13f673	0.036123704
23	0xbb91d65e	-0.0044506034
24	0xbdb17b52	-0.086660996
25	0x3d2c54a6	0.042072915
26	0xbd95ebb3	-0.07320347
27	0xbd2c0a57	-0.04200205
28	0xbd41325d	-0.04716717
29	0xbc72a05a	-0.014808739
30	0xbc4d2734	-0.012521554
31	0x3d9c4ea4	0.07632187
32	0xba944e7a	-0.0011314892
33	0x3d9b8dad	0.07595382
34	0x3d42c99a	0.047555543
35	0xbd9d5cb9	-0.07683701
36	0x3cffe022	0.031234805
37	0xbda2127c	-0.07913682
38	0xbd49ee15	-0.04929932
39	0x3cc18566	0.02362318
40	0x3cec62b9	0.028855668
41	0x3d7b8612	0.061407156
42	0xbd2a59d8	-0.041589588
43	0xbc5c74b4	-0.013455559
44	0x3d1b1a8f	0.037867125
45	0xbdc60f7b	-0.096709214
46	0x3d87cdb5	0.066310324
47	0xbdbab17a	-0.09115882
48	0xbc487d70	-0.012236938
49	0xbc8b471a	-0.017001677
50	0xbd654988	-0.055978328
51	0x3afe5d7c	0.0019406523
52	0x3d914538	0.070932806
53	0xbd109394	-0.03529699
54	0xbd88168d	-0.06644926
55	0xbd4f4077	-0.050598588
56	0xbde4157e	-0.11136912
57	0x3d011f2f	0.03152388
58	0xbd7c7c36	-0.061641894
59	0xbda48e28	-0.08034927
60	0xbd8506d3	-0.06495442
61	0x3d51f5ea	0.051259913
62	0x3d21255a	0.03934226
63	0x3d8e2269	0.06940157
64	0x3cf3b4d8	0.029749319
65	0xbd408e8b	-0.04701094
66	0xbd06b1ce	-0.03288441
67	0x3cbdddc5	0.023177037
68	0x3d9ac599	0.0755722
69	0x3cabbbf1	0.02096364
70	0xbd41cce3	-0.047314536
71	0xbd784ec0	-0.060621977
72	0xbddc0f01	-0.10745049
73	0x3c7496f5	0.014928569
74	0xbd8636dc	-0.06553432
75	0xbe014619	-0.12624396
76	0x3da6a980	0.08137798
77	0xbda0e252	-0.07855667
78	0xbc85772b	-0.016292175
79	0x3c765237	0.01503425
80	0xbc2ae1e2	-0.010429831
81	0xbda13c6f	-0.07872855
82	0xbd9ce34a	-0.076605394
83	0x3d875b8b	0.06609257
84	0x3c342ff9	0.010997766
85	0x3d8e05f3	0.069347285
86	0xbd41105c	-0.047134742
87	0x3c81c31b	0.015840104
88	0xbcea4b4e	-0.028600361
89	0xbc93f85e	-0.018062767
90	0xbd91cce3	-0.07119157
91	0x3ce7f456	0.02831475
92	0x3cceabd5	0.02522842
93	0xbc41bddf	-0.011825054
94	0xbd13e3ae	-0.036105804
95	0xbd9a2108	-0.075258315
96	0x3d806c34	0.06270638
97	0xbda5461a	-0.080700114
98	0x3ce00f52	0.027351055
99	0xbd417fb8	-0.047240943
100	0xbf87402d	-1.056646
101	0x3d51d128	0.051224858
102	0xbd414e43	-0.047193777
103	0x3ba3779c	0.004988624
104	0x3d0c03d5	0.034183342
105	0xbd7acec4	-0.061232343
106	0x3eff814f	0.49903342
107	0x3d466a43	0.048441183
108	0x3e58c0da	0.21167317
109	0x3ce3182b	0.027721485
110	0xbda02044	-0.07818654
111	0xbd233cc0	-0.039852858
112	0x3ca4671b	0.020068696
113	0xbd3e587a	-0.046471097
114	0x3bc06098	0.00587089
115	0xbef5c83d	-0.48004332
116	0xbcbcb71a	-0.023036528
117	0x3c46cfd2	0.012134509
118	0x3c9e11ec	0.019295655
119	0x3c6f21a0	0.014595419
120	0x3c5176c1	0.012784661
121	0x3d29c491	0.041447226
122	0xbd16ddc0	-0.03683257
123	0x3d3e2096	0.046417795
124	0x3e9ae979	0.3025625
125	0x3d93ae93	0.07211032
126	0x3dba5399	0.09097976
127	0x3c646f18	0.013942502
128	0x3d06526a	0.03279344
129	0xbd04e976	-0.03244921
130	0xbd91660e	-0.070995435
131	0xbd506c06	-0.05088427
132	0x3dcc407a	0.099732354
133	0x3d6e9933	0.05825157
134	0xbd0b129f	-0.033953305
135	0xbc228abf	-0.009920775
136	0x3d6c63f0	0.057712495
137	0x3dfcdbe5	0.12346629
138	0x3de9fca0	0.114251375
139	0x3ddaf269	0.10690767
140	0xbf5dd962	-0.86659825
141	0xbd13142f	-0.03590792
142	0x3e083298	0.1330055
143	0x3c8f979c	0.017528348
144	0xbdbecf32	-0.09316863
145	0x3dad3bac	0.08458647
146	0x3d8d259d	0.0689194
147	0x3d8094ef	0.06278407
148	0xbd6f1ee4	-0.05837907
149	0x3f07a217	0.52981704
150	0xbd411a8d	-0.04714446
151	0x3dc089da	0.09401293
152	0xbc7c8ac2	-0.015413942
153	0x3dc2e452	0.09516205
154	0x3d3818ed	0.044945646
155	0x3d40f65b	0.047109943
156	0x3cb74df6	0.022376042
157	0x3d18b5da	0.037282802
158	0xbde40773	-0.11134233
159	0x3c51b052	0.012798386
160	0xbd30cb54	-0.04316266
161	0xbda83a08	-0.082141936
162	0xbde39424	-0.1111224
163	0x3da71b27	0.08159476
164	0x3d76e19b	0.060273748
165	0x3d8106e2	0.06300141
166	0xbc169380	-0.00919044
167	0xbd85fa8c	-0.06541929
168	0xbd775f84	-0.060393825
169	0xbc7b0438	-0.01532083
170	0xbd699687	-0.05702832
171	0x3d922b50	0.071371675
172	0xbd318fca	-0.04335002
173	0xbbd01355	-0.006349961
174	0xbd9c456d	-0.076304294
175	0xbcd0fb4f	-0.025510458
176	0x3ded392d	0.11583171
177	0x3d9a080b	0.07521065
178	0x3e3c5f42	0.18395713
179	0x3d8473aa	0.06467374
180	0x3d81e215	0.0634195
181	0xbcd8e3c4	-0.026475795
182	0x3d92538a	0.0714484
183	0x3d84b971	0.06480683
184	0x3da09241	0.07840396
185	0x3d72bb58	0.059260696
186	0x3e1788a2	0.14798215
187	0x3d5a5192	0.053300448
188	0xbce430ad	-0.027855242
189	0x3bc7a850	0.0060930625
190	0x3d0a0bad	0.03370254
191	0x3c2dfaab	0.010618846
192	0xbd0c10d1	-0.034195725
193	0xbd402800	-0.046913147
194	0xbdc2412b	-0.09485086
195	0x3d382b71	0.044963304
196	0x3dba196c	0.0908688
197	0x3d1968ca	0.03745345
198	0xbdd12f74	-0.10214129
199	0x3d8e2396	0.06940381
200	0x3f3f980b	0.74841374
201	0xbca94463	-0.020662492
202	0xbd6042bc	-0.054751143
203	0x3d9e8c04	0.077415496
204	0x3c96c60b	0.018404981
205	0xbd463bec	-0.04839699
206	0xbf0df2c9	-0.55448586
207	0xbefd2f6d	-0.49450245
208	0xbee77540	-0.45206642
209	0x3d9a8829	0.07545502
210	0xbd696351	-0.05697948
211	0xbc950f6d	-0.018195832
212	0x3d53fc13	0.05175407
213	0x3c39f8df	0.011350839
214	0xbd967324	-0.0734618
215	0xbd08e6dd	-0.033423293
216	0xbe37b1b8	-0.17938888
217	0x3c313c50	0.010817602
218	0x3c1c439b	0.009537603
219	0x3d8b23df	0.06793951
220	0x3e5614f5	0.20906432
221	0xbd3b6704	-0.04575254
222	0xbe2f049d	-0.17091604
223	0x3dd55022	0.10415675
224	0xbecdc21b	-0.40187153
225	0xbdbb2cb3	-0.09139385
226	0xbda8bf7d	-0.082396485
227	0xbd9c847e	-0.076424584
228	0xbd623703	-0.055228245
229	0xbd3873e0	-0.045032382
230	0xbda483e3	-0.08032968
231	0x3b84df8c	0.004054969
232	0x3d7f361f	0.062307473
233	0xbc80b2f5	-0.015710333
234	0xbde06aeb	-0.10957893
235	0xbcd86aa0	-0.02641803
236	0xbc22b12f	-0.009929939
237	0xbd718717	-0.058966722
238	0xbd84c4c0	-0.064828396
239	0xbddaa1d6	-0.10675399
240	0x3f34d2aa	0.7063395
241	0xbde0c0b8	-0.10974258
242	0xbc4226d7	-0.01185008
243	0x3d6939f3	0.05694003
244	0xbdbbbf4f	-0.091673486
245	0x3d9f76a7	0.07786303
246	0x3e5c4ee8	0.21514475
247	0x3d6061f5	0.05478092
248	0xbc348767	-0.011018611
249	0xbf38d92c	-0.7220638
250	0xbf9538f8	-1.165801
251	0xbe1f0a9d	-0.15531392
252	0xbde74fec	-0.11294541
253	0xbda886d1	-0.08228839
254	0x3e2c0c9f	0.1680169
255	0x3d88db62	0.06682469

3.bias f4 [100]
0	0xbd62ab82	-0.055339344
1	0xbf3319c4	-0.6996119
2	0x3f1d39e0	0.61416435
3	0xbf48dc5f	-0.7846126
4	0x3e1a49a3	0.15067153
5	0x3e35004a	0.17675892
6	0x3e6f9751	0.23397566
7	0x3f41f9d1	0.75771815
8	0xbd30ca2a	-0.04316155
9	0xbd992690	-0.07478058
10	0x3e336aca	0.17521206
11	0xbed07024	-0.40710557
12	0xbd8d81b5	-0.06909505
13	0xbded8181	-0.115969665
14	0x3e3a98d4	0.18222362
15	0x3f3728bf	0.7154655
16	0x3cf8b91d	0.030361706
17	0x3f22630f	0.634324
18	0x3e10e6c9	0.14150538
19	0x3e0a8f17	0.13531147
20	0xbe6936b0	-0.22774768
21	0x3d1625c3	0.036657106
22	0x3f20e6be	0.62852085
23	0x3d214603	0.03937341
24	0x3d9521da	0.07281847
25	0xbd0bdc48	-0.034145623
26	0xbd85ed4e	-0.06539403
27	0x3f1c3821	0.61023146
28	0x3ed41abc	0.41426647
29	0x3e57643b	0.21034329
30	0x3dbe1b5d	0.09282563
31	0x3e64a4d7	0.22328506
32	0x3c56f547	0.013120002
33	0x3efb547c	0.49087894
34	0x3d81a10d	0.06329546
35	0x3e7dbc3c	0.24778837
36	0xbda0a72e	-0.07844387
37	0x3f506b85	0.8141406
38	0x3f5d687a	0.86487544
39	0x3d9ac630	0.075573325
40	0x3d67fc68	0.056637198
41	0x3c73f36f	0.014889582
42	0x3dc5e27a	0.096623376
43	0xbdb7e796	-0.089797184
44	0x3eed29a5	0.46320835
45	0xbf63da37	-0.89004844
46	0xbddeee9e	-0.10885356
47	0x3dcd2338	0.10016483
48	0xbf5277f2	-0.8221427
49	0xbf1d1d26	-0.613726
50	0xbf09fbde	-0.53899944
51	0x3ea6b44e	0.32559437
52	0x3e80addf	0.25132653
53	0x3e9acdb8	0.30235076
54	0x3db3b74e	0.08775197
55	0x3e64f622	0.22359517
56	0x3e2d86e1	0.16945983
57	0x3e5ddf22	0.2166715
58	0x3f3f66cc	0.7476623
59	0xbd11c8ea	-0.035591997
60	0x3dd87baa	0.10570462
61	0x3e523b48	0.20530427
62	0xbd82a79a	-0.06379624
63	0xbf6495c9	-0.89291054
64	0xbf2828a9	-0.6568704
65	0xbf395a7a	-0.7240368
66	0xbcb58d4f	-0.022162108
67	0x3d73945b	0.059467655
68	0x3f3b87ff	0.7325439
69	0xbf289b1f	-0.65861696
70	0x3f2d2935	0.67641
71	0xbf6581cb	-0.89651173
72	0xbdb45a01	-0.088062294
73	0x3f5605f1	0.83602816
74	0x3e736b21	0.23771335
75	0xbcfe32c7	-0.031030072
76	0xbdbc0115	-0.09179894
77	0x3e1d05ea	0.15334287
78	0x3e0efa66	0.13962707
79	0xbcf73188	-0.030174986
80	0xbe0889d8	-0.13333833
81	0x3d87b154	0.066256195
82	0xbd5bc86e	-0.05365794
83	0xbf2aaacd	-0.6666687
84	0xbe257134	-0.16156465
85	0x3f6576d7	0.8963446
86	0x3e4d47fc	0.20046991
87	0x3f21de5c	0.6322992
88	0xbefa218e	-0.48853725
89	0x3efa2b76	0.48861283
90	0xbf2feed7	-0.68723816
91	0x3f278034	0.6543
92	0x3ce2e68b	0.027697822
93	0x3e6b4888	0.22976887
94	0x3f42edbd	0.7614401
95	0xbf46e531	-0.7769347
96	0x3f121487	0.5706257
97	0xbdea2eeb	-0.1143473
98	0xbdbfb64d	-0.09360943
99	0x3e40c362	0.18824533

6.weight f4 [100, 100]
0	0x3d5bf7b7	0.053703036
1	0xbd93c0bf	-0.07214498
2	0xbd6ec6f2	-0.058295198
3	0x3ce76d23	0.028250283
4	0xbdce8f6e	-0.10085951
5	0x3d7ad287	0.06123593
6	0xbc4a6b4f	-0.012354686
7	0x3d785e63	0.06063689
8	0x3d2f1dc8	0.04275301
9	0x3d16a36a	0.036776938
10	0xbe3f3e03	-0.18676
11	0x3ca577b2	0.020198677
12	0x3d8d0f1a	0.06887646
13	0xbd447d26	-0.047970913
14	0x3d4daebf	0.05021548
15	0x3d84f90d	0.06492815
16	0x3ca87fba	0.020568717
17	0x3d86f8b4	0.06590405
18	0xbe29608c	-0.16540736
19	0x3d51dffa	0.05123899
20	0x3cbe25e8	0.023211434
21	0x3da2c8a5	0.07948426
22	0x3d192b9d	0.03739511
23	0xbd41223c	-0.04715179
24	0xbded6b54	-0.11592737
25	0x3c6b6f6f	0.01436983
26	0xbd0e288a	-0.03470663
27	0x3d570d8b	0.05250315
28	0x3ceb648a	0.028734464
29	0xbe0a6cb1	-0.13518025
30	0xbeef434a	-0.46731025
31	0xbda15ad5	-0.07878653
32	0x3c7b4cf6	0.015338173
33	0xbe11c6fd	-0.14236064
34	0x3da265bf	0.07929563
35	0x3b211825	0.0024581042
36	0x3c34f602	0.011044981
37	0x3dbacf2b	0.091215454
38	0x3e591b4e	0.21201822
39	0xbdcd9fc2	-0.10040237
40	0x3ddac106	0.106813475
41	0xbeb42256	-0.35182446
42	0x3a34e682	0.00069008034
43	0xbc201414	-0.009770412
44	0xbcb012da	-0.021493364
45	0xbe02a104	-0.12756735
46	0xbc5025bc	-0.012704309
47	0xbe4359f2	-0.1907728
48	0xbe1e4e79	-0.15459622
49	0xbd4d86e5	-0.050177474
50	0xbe04af2a	-0.12957445
51	0xbd71a5cf	-0.058996018
52	0xbe8736a1	-0.26408866
53	0xbdd83aeb	-0.10558113
54	0xbde98ce8	-0.11403829
55	0x3d542751	0.051795308
56	0xbd3e880c	-0.046516463
57	0xbd928e9f	-0.07156109
58	0xbbeabf69	-0.007163931
59	0xbda8de08	-0.08245474
60	0xbc2e105f	-0.01062402
61	0x3dcee639	0.10102505
62	0xbdd86873	-0.10566797
63	0xbe0341d8	-0.12818086
64	0x3cd95fc0	0.026534915
65	0x3d020a79	0.03174827
66	0xbd568ca0	-0.052380204
67	0xbccb2bcf	-0.024801163
68	0x3d98e3c4	0.07465318
69	0xbd9fcdf8	-0.07802957
70	0x3dc45b43	0.09587719
71	0xbdd23b9f	-0.10265278
72	0xbdab8597	-0.083750896
73	0x3ca1d540	0.019755006
74	0xbc87c05f	-0.016571222
75	0xbd26f510	-0.040761054
76	0xbd872be8	-0.06600171
77	0xbca58ed7	-0.020209713
78	0xbebecc0e	-0.37265056
79	0x3d541972	0.05178208
80	0xbda73f66	-0.08166389
81	0xbd028c59	-0.031872127
82	0x3d2d502c	0.042312786
83	0x3d2c718e	0.04210048
84	0x3d08ad25	0.03336825
85	0x3e23f9fb	0.16013329
86	0x3ca45227	0.020058705
87	0x3b5a0556	0.003326734
88	0xbdd41fe1	-0.10357643
89	0xbc0dd0eb	-0.008655767
90	0x3cc8e863	0.024524873
91	0x3c3de0f0	0.011589274
92	0x3d0f8269	0.03503648
93	0xbc5d3218	-0.013500713
94	0x3dd0fa88	0.10204035
95	0x3cab27bf	0.020892976
96	0xbd48e697	-0.049048033
97	0x3d9484f8	0.07251924
98	0xbdb766c6	-0.08955149
99	0xbda1b073	-0.07894983
100	0xbdd907b3	-0.10597172
101	0xbe16fb10	-0.1474421
102	0x3bd5713e	0.0065137437
103	0x3cda053c	0.026613824
104	0xbd31f325	-0.04344477
105	0xbde1261a	-0.109935954
106	0xbde781a2	-0.11304022
107	0x3d23975a	0.039939262
108	0xbcf6fb7b	-0.030149212
109	0x3cc74747	0.02432598
110	0xbd3ef609	-0.046621356
111	0x3c30b757	0.010785899
112	0x3d83f348	0.064428866
113	0xbd0a3769	-0.03374425
114	0x3cb1bbd3	0.021696007
115	0xbd8fab41	-0.07015086
116	0xbda8cb38	-0.08241886
117	0x3dfb28f0	0.122636676
118	0xbe10ca76	-0.14139733
119	0xbe12872d	-0.14309378
120	0xbd569943	-0.052392256
121	0x3d87a9d1	0.06624187
122	0x3e8a73ef	0.27041575
123	0x3d966ab2	0.07344569
124	0x3ba24343	0.004951866
125	0xbd9137c8	-0.070907176
126	0xbd034581	-0.032048706
127	0x3bc988df	0.0061503495
128	0xbcd026b1	-0.025409075
129	0xbd94aa0e	-0.07258998
130	0x3d42ebbd	0.0475881
131	0xbe3be5f3	-0.18349437
132	0x3c1b4fad	0.009479445
133	0xbdefcac7	-0.117085986
134	0xbd9505f4	-0.07276526
135	0xbe850323	-0.25978956
136	0x3d200b51	0.039073292
137	0x3bc78ab8	0.0060895346
138	0x3d3dc129	0.04632679
139	0x3d0e4c12	0.034740515
140	0xbd73b950	-0.0595029
141	0x3d555ff0	0.052093446
142	0x3d9fdda8	0.078059494
143	0xbb69bbad	-0.0035664842
144	0xbe0f4263	-0.13990168
145	0xbdf413f0	-0.11917865
146	0x3c7b9869	0.015356162
147	0xbf57c9e8	-0.8429246
148	0xbe4e9511	-0.20174052
149	0x3c9b8358	0.018983528
150	0xbd087c74	-0.033321813
151	0x3d230a7a	0.039804913
152	0xbeda4f8a	-0.42638808
153	0x3d74ceff	0.05976772
154	0x3b8baa6a	0.0042622583
155	0xbdf489be	-0.11940335
156	0xbde05ece	-0.109555826
157	0x3ca29858	0.019848034
158	0x3dacf779	0.08445639
159	0x3dc9a47d	0.09845827
160	0xbdcc8533	-0.09986343
161	0x3df04d69	0.11733515
162	0xbd313920	-0.04326737
163	0xbdf0e627	-0.11762648
164	0xbbdb84c7	-0.006699178
165	0xbdec5cd7	-0.11541145
166	0xbdbb7b45	-0.09154371
167	0x3d236298	0.03988895
168	0xbdb1d4b6	-0.086831495
169	0xbbd0cfa8	-0.006372411
170	0x3da45908	0.08024794
171	0xbd9ab843	-0.075546764
172	0xbcc469c3	-0.023976212
173	0x3cc11af0	0.023572415
174	0xbcece61a	-0.028918315
175	0xbc62de67	-0.01384697
176	0xbdcccae6	-0.09999637
177	0xbc4b217a	-0.012398118
178	0xbe07ddd0	-0.13268209
179	0x3d86b20f	0.06576931
180	0xbcec93ef	-0.028879134
181	0xbd677c5f	-0.056515094
182	0xbd9eda4b	-0.0775648
183	0x3d0448eb	0.032296102
184	0x3d0fbdb9	0.035093043
185	0x3e2e6ee1	0.17034484
186	0x3ce513d8	0.027963564
187	0xbd080c46	-0.03321483
188	0x3c815068	0.015785411
189	0x3c50b32b	0.0127380295
190	0x3d144ea3	0.036207806
191	0x3d5933c5	0.053027887
192	0x3d27bb3a	0.040950038
193	0xbe11cad0	-0.14237523
194	0x3db524b4	0.08844891
195	0xbcc09e60	-0.02351302
196	0xbebb2c5c	-0.3655728
197	0x3d9a9d7f	0.07549571
198	0xbd5efa73	-0.054438066
199	0xbdbf071e	-0.09327529
200	0x3dc028a7	0.09382754
201	0xbd88db90	-0.06682503
202	0x3d520234	0.051271632
203	0x3d58a67b	0.052893143
204	0xbd6d0c44	-0.057873026
205	0xbdf54166	-0.119753644
206	0xbc2c3968	-0.010511734
207	0x3cafe633	0.021472072
208	0xbd5a2b38	-0.053263873
209	0x3d8e3815	0.069442905
210	0x3d94701e	0.07247947
211	0xbc9f025e	-0.019410308
212	0xbe466530	-0.19374537
213	0xbdaf64cc	-0.08564147
214	0x3c3f57e2	0.011678668
215	0x3de87e01	0.11352158
216	0xbd83ec3f	-0.06441545
217	0x3d902c12	0.07039656
218	0xbf2b467e	-0.6690444
219	0xbf1fc3f9	-0.62408406
220	0x3d811fcd	0.06304894
221	0x3cb3130e	0.021859672
222	0x3e4db5d9	0.200889
223	0xbda29347	-0.07938247
224	0xbb166538	-0.0022948515
225	0xbd049ba6	-0.032375
226	0x3dabeebc	0.08395144
227	0x3bd7d9e7	0.0065872553
228	0xbc78c02f	-0.015182539
229	0x3db0e4f2	0.08637418
230	0x3da0c837	0.07850688
231	0x3db30e4a	0.0874296
232	0x3d859b5d	0.06523774
233	0xbde4f2e2	-0.11179139
234	0xbd4a4fd6	-0.049392544
235	0xbf6693a1	-0.90069014
236	0xbd216f2d	-0.039412666
237	0x3d25b684	0.040457264
238	0x3db31285	0.08743767
239	0xbda888fa	-0.08229251
240	0xbc37f953	-0.011228877
241	0xbcd7d693	-0.026347434
242	0xbd19204a	-0.03738431
243	0xbcdecd5f	-0.027197538
244	0xbdf7bd1f	-0.12096619
245	0xbdada25a	-0.08478232
246	0xbd26cb7f	-0.040721413
247	0xbf14df28	-0.5815301
248	0xbdfb0c83	-0.12258246
249	0xbd0c378c	-0.03423266
250	0xbe156918	-0.14590871
251	0x3d03c8e5	0.03217401
252	0xbf4893cf	-0.7835054
253	0xbd633746	-0.055472635
254	0xbcb7ce10	-0.022437125
255	0xbd83e414	-0.06439987

6.bias f4 [100]
0	0x3f40bb7a	0.75286067
1	0x3f305177	0.68874305
2	0x3f680246	0.9062847
3	0xbe79a77d	-0.24380298
4	0x3f5512da	0.8323189
5	0x3dfffcb0	0.12499368
6	0x3ed7114f	0.42005393
7	0x3e048fe2	0.12945512
8	0xbd8cdeea	-0.06878455
9	0xbe56c5ba	-0.20973864
10	0xbe75e185	-0.2401181
11	0xbf13d852	-0.57751954
12	0x3e542d33	0.20720367
13	0x3f510c2c	0.816592
14	0xbe2bf53e	-0.16792771
15	0x3e5b4f1c	0.21416897
16	0xbc86ae5f	-0.016440568
17	0x3f443509	0.76643425
18	0xbe68d800	-0.22738647
19	0xbe4b1e22	-0.19835714
20	0xbe1406a2	-0.14455655
21	0x3da0f536	0.0785927
22	0x3f7cbaf4	0.9872277
23	0xbe575224	-0.21027428
24	0x3f29c41b	0.6631486
25	0x3eb545d3	0.35404834
26	0x3f04a7d2	0.51818573
27	0x3d379046	0.044815324
28	0x3ea306f5	0.31841245
29	0xbf3ad951	-0.7298785
30	0xbdd436b4	-0.10361996
31	0x3e80e990	0.25178194
32	0x3f324049	0.6962934
33	0x3f2a93da	0.66631854
34	0x3e141d04	0.14464194
35	0xbf5e247d	-0.86774427
36	0xbda008a0	-0.07814145
37	0xbe630ff1	-0.2217405
38	0xbf2932d1	-0.66093165
39	0x3f203e6b	0.6259524
40	0x3ef9887a	0.48736936
41	0x3f30ed97	0.69112533
42	0x3e48e25a	0.19617596
43	0xbe8f701e	-0.28015226
44	0x3ea557e2	0.32293612
45	0xbe70714a	-0.23480716
46	0x3b687060	0.0035467371
47	0x3c8a5ba7	0.016889406
48	0x3e893f71	0.26806214
49	0xbe35afa3	-0.17742781
50	0x3f2cad2d	0.67451745
51	0xbea450fd	-0.3209304
52	0x3e926b1b	0.2859734
53	0x3f353547	0.7078442
54	0x3ec0b86a	0.37640697
55	0x3cb36931	0.021900745
56	0xbe91e30c	-0.28493536
57	0x3dcb4ced	0.09926782
58	0x3f6da333	0.9282715
59	0x3ebbcd5e	0.3668012
60	0x3e946a79	0.28987482
61	0x3ecc97ce	0.39959568
62	0x3efc17f2	0.4923702
63	0x3f1e4075	0.61817104
64	0x3f3812cb	0.71903676
65	0x3f3b2928	0.73109674
66	0x3f42dd0c	0.7611854
67	0xbe3d63c8	-0.18495095
68	0x3e5530e7	0.20819436
69	0xbc950735	-0.018191913
70	0xbe92b6d2	-0.28655106
71	0x3ecfbb60	0.40572643
72	0x3eba08aa	0.36334735
73	0xbebd939d	-0.37026682
74	0x3e9f8a2b	0.311601
75	0xbe0ffbb4	-0.14060861
76	0x3f51d3e9	0.81963974
77	0x3ec242a4	0.37941468
78	0x3f45b9a8	0.77236414
79	0xbe0e9850	-0.1392529
80	0xbba69cbe	-0.005084603
81	0x3f4028ca	0.7506224
82	0x3f06e9dc	0.5270059
83	0xbf3505bb	-0.7071187
84	0x3d1885d8	0.03723702
85	0x3f3b8638	0.73251677
86	0x3e9212bc	0.28529918
87	0xbe5ef164	-0.2177177
88	0x3e3c8870	0.18411422
89	0xbe8461fe	-0.25856012
90	0x3f3fc9b6	0.7491716
91	0x3f3935b3	0.72347564
92	0xbdbf9785	-0.09355072
93	0x3eb15ac5	0.34639564
94	0x3e87bfc4	0.26513493
95	0xbda0535c	-0.078283995
96	0x3f509899	0.81482846
97	0xbe248bd6	-0.16068968
98	0x3f25cc44	0.6476481
99	0x3eac47ae	0.33648437

9.weight f4 [1, 100]
0	0xbdb7f767	-0.08982735
1	0xbdac63cc	-0.08417472
2	0xbe48c28c	-0.19605464
3	0x3d69c282	0.057070263
4	0xbe36e65e	-0.17861316
5	0x3d20ad42	0.03922773
6	0x3d2b3944	0.04180266
7	0x3d0e5acc	0.03475456
8	0xbd8769af	-0.066119544
9	0x3d548d70	0.051892698
10	0x3d2ec54e	0.042668633
11	0x3df2893e	0.11842583
12	0x3e3e7048	0.1859752
13	0xbe8a2e98	-0.26988673
14	0x3d3cf584	0.04613258
15	0xbea73ea7	-0.32664987
16	0x3c48a33a	0.0122459475
17	0xbe2d8b39	-0.1694764
18	0x3d809b97	0.062796764
19	0x3d32e9ea	0.04368011
20	0x3d3b2620	0.045690656
21	0xbc8af574	-0.016962744
22	0xbe2e73ec	-0.17036408
23	0x3d63b12e	0.055588894
24	0xbda0f525	-0.078592576
25	0xbe3526a2	-0.17690518
26	0xbd719a7f	-0.05898523
27	0xbd6b6c44	-0.057476297
28	0x3d68846b	0.05676691
29	0x3e904d79	0.28184107
30	0x3e4f1de3	0.20226245
31	0x3d4e7334	0.050402835
32	0xbdf24dbb	-0.11831232
33	0xbe186197	-0.14880978
34	0xbf06f598	-0.52718496
35	0x3e1f5f63	0.15563731
36	0x3c40e995	0.01177444
37	0x3ed57aa9	0.41695145
38	0x3e97a7d2	0.29620224
39	0xbdbb613a	-0.09149404
40	0x3debfece	0.115232095
41	0xbe5ecc03	-0.21757512
42	0x3d3fcb25	0.046824593
43	0x3d17a520	0.03702271
44	0x3d2af38a	0.041736163
45	0x3d32a978	0.04361865
46	0x3d640fdd	0.05567919
47	0xbd95e560	-0.073191404
48	0x3d5b86ef	0.05359548
49	0x3d3a973d	0.04555439
50	0xbe5326d5	-0.20620282
51	0x3d932d09	0.07186324
52	0x3d225860	0.039635062
53	0xbddbd838	-0.107346
54	0xbe72cb64	-0.237104
55	0xbc4f5bbe	-0.01265615
56	0x3d2a8f2a	0.04164044
57	0xbe812523	-0.25223646
58	0xbe32f7cb	-0.17477338
59	0x3d86086e	0.065445766
60	0x3de7b63e	0.11314057
61	0x3d2d3f52	0.042296715
62	0xbe20943c	-0.15681547
63	0xbdce9569	-0.100870915
64	0xbe0b95b1	-0.13631321
65	0xbe2a6809	-0.16641249
66	0xbe0b073e	-0.13576981
67	0x3f45e158	0.7729697
68	0xbed824ca	-0.42215568
69	0x3cbc5ea7	0.022994353
70	0x3d87acf5	0.06624786
71	0x3d8a19c7	0.06743198
72	0x3d5972c2	0.053087957
73	0x3d155286	0.036455654
74	0x3d32fe27	0.04369941
75	0x3d5a34e8	0.05327311
76	0xbe461408	-0.19343579
77	0x3d3286c1	0.043585543
78	0xbe52d21d	-0.20587964
79	0x3d463189	0.048387084
80	0x3d555467	0.052082445
81	0xbe144d3c	-0.14482588
82	0xbda76779	-0.08174033
83	0x3e6a069d	0.22854085
84	0xbc042966	-0.008066511
85	0xbe257052	-0.16156128
86	0xbf182a3a	-0.5943943
87	0x3d338044	0.043823496
88	0xbdad664e	-0.08466779
89	0x3d2fb15d	0.042893756
90	0xbe348ca6	-0.17631778
91	0xbdfbd5e1	-0.122966535
92	0x3d44d75c	0.048056945
93	0x3d608555	0.054814655
94	0xbf0c2bac	-0.5475414
95	0xbd0e7443	-0.034778845
96	0xbe3d8b74	-0.18510228
97	0x3d517d5a	0.051144935
98	0xbe77bfdc	-0.24194282
99	0x3e593edc	0.21215385
